…
ution_count":7,"outputs":[{"output_type":"stream","name":"stdout","text":["torch.Size([100, 10])\n"]}]},{"cell_type":"code","source":["model = ConvNetDeep().to(DEVICE)\n","print(model)"],"metadata":{"colab":{"base_uri":"https://localhost:8080/"},"id":"4gC-tlvUS1bR","executionInfo":{"status":"ok","timestamp":1701183980358,"user_tz":-540,"elapsed":20,"user":{"displayName":"김병찬","userId":"01347076554296278242"}},"outputId":"a15dd9ac-e787-4f51-8596-825c5ebb50c3"},"execution_count":8,"outputs":[{"output_type":"stream","name":"stdout","text":["ConvNetDeep(\n","  (conv_block1): Sequential(\n","    (0): Conv2d(3, 32, kernel_size=(3, 3), stride=(1, 1), padding=(1, 1))\n","    (1): BatchNorm2d(32, eps=1e-05, momentum=0.1, affine=True, track_running_stats=True)\n","    (2): ReLU()\n","    (3): Conv2d(32, 32, kernel_size=(3, 3), stride=(1, 1), padding=(1, 1))\n","    (4): BatchNorm2d(32, eps=1e-05, momentum=0.1, affine=True, track_running_stats=True)\n","    (5): ReLU()\n","  )\n","  (Maxpool1): MaxPool2d(kernel_size=2, stride=2, padding=0, dilation=1, ceil_mode=False)\n","  (conv_block2): Sequential(\n","    (0): Conv2d(32, 64, kernel_size=(3, 3), stride=(1, 1), padding=(1, 1))\n","    (1): BatchNorm2d(64, eps=1e-05, momentum=0.1, affine=True, track_running_stats=True)\n","    (2): ReLU()\n","    (3): Conv2d(64, 64, kernel_size=(3, 3), stride=(1, 1), padding=(1, 1))\n","    (4): BatchNorm2d(64, eps=1e-05, momentum=0.1, affine=True, track_running_stats=True)\n","    (5): ReLU()\n","    (6): Conv2d(64, 64, kernel_size=(3, 3), stride=(1, 1), padding=(1, 1))\n","    (7): BatchNorm2d(64, eps=1e-05, momentum=0.1, affine=True, track_running_stats=True)\n","    (8): ReLU()\n","  )\n","  (Maxpool2): MaxPool2d(kernel_size=2, stride=2, padding=0, dilation=1, ceil_mode=False)\n","  (conv_block3): Sequential(\n","    (0): Conv2d(64, 128, kernel_size=(3, 3), stride=(1, 1), padding=(1, 1))\n","    (1): BatchNorm2d(128, eps=1e-05, momentum=0.1, affine=True, track_running_stats=True)\n","    (2): ReLU()\n","    (3): Conv2d(128, 128, kernel_size=(3, 3), stride=(1, 1), padding=(1, 1))\n","    (4): BatchNorm2d(128, eps=1e-05, momentum=0.1, affine=True, track_running_stats=True)\n","    (5): ReLU()\n","    (6): Conv2d(128, 128, kernel_size=(3, 3), stride=(1, 1), padding=(1, 1))\n","    (7): BatchNorm2d(128, eps=1e-05, momentum=0.1, affine=True, track_running_stats=True)\n","    (8): ReLU()\n","  )\n","  (Maxpool3): MaxPool2d(kernel_size=2, stride=2, padding=0, dilation=1, ceil_mode=False)\n","  (classifier): Sequential(\n","    (0): Linear(in_features=18432, out_features=512, bias=True)\n","    (1): ReLU()\n","    (2): Linear(in_features=512, out_features=10, bias=True)\n","  )\n",")\n"]}]},{"cell_type":"code","source":["import os\n","os.chdir('/content/drive/MyDrive/DeepLearning')"],"metadata":{"id":"Zf3AB-k_MIOE","executionInfo":{"status":"ok","timestamp":1701183980358,"user_tz":-540,"elapsed":17,"user":{"displayName":"김병찬","userId":"01347076554296278242"}}},"execution_count":9,"outputs":[]},{"cell_type":"code","sour
…
